moe_model_weights.pth (torch, 6228 bytes, 1 tensors)

classifier.weight f4 [1, 1152]
0	0xbd66f725	-0.05638804
1	0xbcb8c196	-0.022553246
2	0xbd6455fb	-0.05574606
3	0xbe285bff	-0.16441344
4	0x3caee5bc	0.02134978
5	0xbe30465d	-0.17214341
6	0x3c362cfa	0.011119122
7	0xbe0b8811	-0.13626124
8	0xbdd768a0	-0.105180025
9	0xbbee39b8	-0.007270064
10	0x3cbe8177	0.023255093
11	0xbc1bbe75	-0.009505858
12	0x3c062d61	0.00818953
13	0x3ddeceb2	0.10879268
14	0x3e52d9ca	0.20590892
15	0xbcc1e8df	-0.023670612
16	0x3dae0854	0.08497682
17	0x3d078b1d	0.033091653
18	0xbb836271	-0.004009538
19	0xbe0ba7c8	-0.13638222
20	0xbc8cc296	-0.01718263
21	0xbb78aefd	-0.0037946098
22	0xbc668fa9	-0.014072337
23	0xbdbecd63	-0.09316518
24	0xbe8f76c7	-0.28020307
25	0xbd94ab5a	-0.07259245
26	0x3c93d485	0.018045673
27	0xbc7f94b0	-0.015599415
28	0xbd2de274	-0.04245229
29	0xbdd670f7	-0.10470765
30	0x3e2f6227	0.17127286
31	0x3d8b73f6	0.06809227
32	0xbdc0f6c0	-0.09422064
33	0x3c50fc4e	0.012755467
34	0xbe3a5a0c	-0.18198413
35	0x3d8c93ab	0.06864103
36	0xbd218e22	-0.03944219
37	0xbe477564	-0.19478375
38	0xbdb0a7e1	-0.0862577
39	0xbca4984e	-0.020092156
40	0x3e0b692c	0.13614339
41	0xbd6499d3	-0.05581076
42	0x3db65033	0.089020155
43	0x3dc96473	0.09833612
44	0xbde37848	-0.11106926
45	0x3d69d04f	0.057083424
46	0xbe228db8	-0.15874374
47	0x3d0d3288	0.03447202
48	0xbdd9d6bd	-0.10636661
49	0xbd7ada68	-0.061243445
50	0x3dde1c9a	0.10845299
51	0x3db56e7b	0.08858963
52	0x3bf80cd2	0.0075698877
53	0xbd8ba201	-0.06818009
54	0x3df5ed9e	0.120082125
55	0x3e205af7	0.156597
56	0x3d26c3ee	0.040714197
57	0x3d3bc187	0.04583886
58	0x3c0b840b	0.008515368
59	0xbd064c32	-0.03278751
60	0x3ddff221	0.10934854
61	0xbd0ef982	-0.034905918
62	0x3e0da8ca	0.13833919
63	0xbd96247a	-0.07331176
64	0x3d74c9db	0.059762817
65	0xbe8b1b18	-0.27169108
66	0xbd0afd05	-0.033932704
67	0x3e986472	0.29764134
68	0xbd16909f	-0.036759015
69	0x3e482fc6	0.19549474
70	0xbd8f28b9	-0.06990189
71	0xbbf4a812	-0.0074663246
72	0xbc122e19	-0.008922123
73	0x3d612b91	0.05497319
74	0xbd5e1eff	-0.05422878
75	0xbe2f4622	-0.17116597
76	0xbd749331	-0.059710685
77	0x3d93a0d1	0.07208408
78	0x3d2a8d4e	0.041638665
79	0xbd6fd9ba	-0.05855725
80	0xbdec5225	-0.11539105
81	0xbda10ae8	-0.07863408
82	0xbd6b392d	-0.057427574
83	0xbc525c0b	-0.012839328
84	0x3c670552	0.01410039
85	0xbc95bd14	-0.018278636
86	0x3e40841d	0.18800397
87	0x3b85f495	0.0040879943
88	0x3e83e714	0.25762236
89	0xbc66673c	-0.014062699
90	0x3e1dbe5b	0.15404646
91	0x3c629b60	0.01383099
92	0xbd49a645	-0.049230833
93	0xbd776b3e	-0.06040501
94	0xbd624e4a	-0.055250444
95	0x3c4266d7	0.011865339
96	0xb9ac8fb8	-0.00032913475
97	0xbe33160a	-0.17488876
98	0xbb60f75e	-0.003432713
99	0x3e24e73b	0.16103832
100	0xbdc03c55	-0.093865074
101	0xbd41df08	-0.04733184
102	0xbd853de3	-0.065059446
103	0xbd1c1280	-0.03810358
104	0x3d570ddc	0.05250345
105	0xbe820b4e	-0.2539925
106	0xbdb1139f	-0.086463206
107	0x3e7a3178	0.24432933
108	0x3daa64a4	0.08319977
109	0x3e63625f	0.22205494
110	0x3dc26fc5	0.094939746
111	0x3c51e542	0.012811007
112	0xbd5951a6	-0.05305638
113	0x3e2c2c8d	0.1681387
114	0x3da9382a	0.082626656
115	0x3dabf252	0.08395828
116	0x3dd23b48	0.10265213
117	0xbd6a95bd	-0.057271708
118	0xbd8eea2a	-0.06978257
119	0xbdadb6d0	-0.08482134
120	0x3d9cf799	0.07664413
121	0x3e045b60	0.12925482
122	0xbd6fddf8	-0.058561295
123	0x3e052834	0.13003618
124	0x3cb0e739	0.02159463
125	0xbc9be79a	-0.019031335
126	0x3d9d0333	0.07666626
127	0x3da60b01	0.081075676
128	0xbae239c5	-0.0017259648
129	0xbdd50485	-0.10401253
130	0xbc583ae6	-0.013197636
131	0xbd103556	-0.035207115
132	0x3d951bde	0.07280706
133	0xbd443383	-0.047900688
134	0x3b34aea9	0.0027569926
135	0xbceaf71f	-0.02868229
136	0xbc45877d	-0.012056229
137	0xbd8355d5	-0.064128555
138	0x3cf07b0e	0.029355552
139	0xbe1b6139	-0.15173806
140	0x3dd5ba19	0.10435886
141	0x3d79290a	0.060830154
142	0xbd0b8f3f	-0.034072157
143	0xbd8215f6	-0.06351845
144	0xbd453bdb	-0.048152786
145	0xbe50a5f0	-0.203758
146	0x3e38a8d5	0.18033154
147	0x3ddccb5c	0.10780975
148	0x3d22df5a	0.039763786
149	0xbc9dc9de	-0.019261297
150	0x3cae70a5	0.021293947
151	0xbd48b738	-0.049002856
152	0xbce26065	-0.027633855
153	0x3d0a93f3	0.0338325
154	0x3bce806b	0.0063019297
155	0x3d5e2ef6	0.054244004
156	0x3e0b8da4	0.1362825
157	0xbdc1486e	-0.09437643
158	0x3e5891c8	0.21149361
159	0xbe032e5c	-0.12810653
160	0x3e42b47f	0.19014166
161	0x3e278dba	0.16362658
162	0x3e1ea924	0.1549421
163	0xbda919a8	-0.08256847
164	0x3e04ae46	0.12957105
165	0xbe1ea6df	-0.15493344
166	0x3d452c7d	0.04813813
167	0x3e2f8274	0.17139608
168	0x3d374818	0.04474649
169	0xbe1ec4dd	-0.15504785
170	0xbe53a437	-0.20668112
171	0xbc873893	-0.016506469
172	0xbd40ea69	-0.04709855
173	0x3e8a4bbf	0.27010915
174	0x3e2d7572	0.16939333
175	0x3c21be92	0.009872096
176	0xbd9a85f2	-0.07545079
177	0xbc1763fd	-0.009240148
178	0xbd749ae8	-0.059718043
179	0x3de61d92	0.11236109
180	0x3e6f68bd	0.23379798
181	0xbcb22095	-0.021744052
182	0x3ce517b2	0.0279654
183	0x3e0957cc	0.13412398
184	0xbd23593e	-0.03988003
185	0xbdd7fec7	-0.10546642
186	0xbe15ef12	-0.1464198
187	0xbe5ff477	-0.218706
188	0xba73335c	-0.00092773675
189	0xbe4ed18d	-0.20197125
190	0xbe49d096	-0.19708475
191	0x3da381ca	0.0798374
192	0xbe74c0f9	-0.23901738
193	0xbe3aacf0	-0.18230033
194	0x3e266cee	0.16252491
195	0x3c2b45b8	0.010453634
196	0x3dfd7c55	0.1237723
197	0xbde02bdd	-0.10945866
198	0xbde45ce5	-0.11150531
199	0xbd9196c5	-0.07108835
200	0x3dbcf6be	0.0922675
201	0x3cbdc303	0.023164278
202	0x3d0a40d6	0.03375324
203	0x3d007857	0.031364765
204	0xbc1fd2ea	-0.009754876
205	0x3e1d9781	0.15389825
206	0x3c8314a9	0.016001062
207	0xbdab0188	-0.083499014
208	0xbde11a4b	-0.10991343
209	0x3c08ae1a	0.00834229
210	0xbd3015c2	-0.0429895
211	0x3ddc29b1	0.107501395
212	0x3d73d26b	0.059526842
213	0x3e81c517	0.2534568
214	0x3ce861aa	0.028366882
215	0x3dc3a545	0.09553007
216	0xbdd25691	-0.102704175
217	0xbc279625	-0.010228668
218	0x3d848005	0.0646973
219	0x3e2ace85	0.16680343
220	0xbd966b44	-0.07344678
221	0x3d926715	0.071485676
222	0xbc1a27c1	-0.009408892
223	0xbcc3f6cd	-0.023921395
224	0xbd82d5e9	-0.063884564
225	0x3e09b843	0.13449197
226	0xbd421cb3	-0.04739065
227	0x3e613965	0.2199455
228	0x3ceb4a55	0.028721968
229	0x3c861542	0.016367558
230	0xbcd672fd	-0.026177878
231	0xbe39a388	-0.18128788
232	0x3d8e77f2	0.069564715
233	0x3e12547d	0.14290042
234	0xbe841b99	-0.25802305
235	0xbb178757	-0.002312144
236	0xbd0fee53	-0.035139393
237	0xbd0d33c4	-0.034473196
238	0x3d899c63	0.067192815
239	0xbe074e6a	-0.13213506
240	0xbe35cf2f	-0.17754816
241	0x3e2a9e94	0.16662055
242	0xbd928f65	-0.071562566
243	0x3dc7ed8a	0.09762104
244	0xbcea163a	-0.028575052
245	0x3e6d0303	0.2314568
246	0xbc5e6bf8	-0.013575546
247	0xbd800472	-0.06250848
248	0x3d3b728e	0.045763545
249	0xbd0a7d8a	-0.03381113
250	0x3d9e60dd	0.07733319
251	0xbd97f626	-0.07419996
252	0xbdbf425c	-0.09338829
253	0xbde94fe7	-0.11392193
254	0x3dd7333d	0.1050782
255	0xbde67b01	-0.1125393
